…
best.pth', resume=False, save_dir='/home/ma-user/work/deNoTr/log', save_images=False, token_mlp='leff', token_projection='linear', train_dir='../train_datasets/lol_800/minibatches_RD_0', train_ps=256, train_workers=16, val_dir='../train_datasets/lol_800/eval_RD_0', vit_depth=12, vit_dim=256, vit_mlp_dim=512, vit_nheads=8, vit_patch_size=16, vit_share=False, warmup=True, warmup_epochs=3, weight_decay=0.02, win_size=8)
Wformer(
  embed_dim=32, token_projection=linear, token_mlp=leff,win_size=8
  (pos_drop): Dropout(p=0.0, inplace=False)
  (input_proj): InputProj(
    (proj): Sequential(
      (0): Conv2d(3, 32, kernel_size=(3, 3), stride=(1, 1), padding=(1, 1))
      (1): LeakyReLU(negative_slope=0.01, inplace=True)
    )
  )
  (output_proj): OutputProj(
    (proj): Sequential(
      (0): Conv2d(32, 3, kernel_size=(3, 3), stride=(1, 1), padding=(1, 1))
    )
  )
  (encoderlayer_0): BasicUformerLayer(
    dim=32, input_resolution=(256, 256), depth=2
    (blocks): ModuleList(
      (0): LeWinTransformerBlock(
        dim=32, input_resolution=(256, 256), num_heads=1, win_size=8, shift_size=0, mlp_ratio=4.0
        (norm1): LayerNorm((32,), eps=1e-05, elementwise_affine=True)
        (attn): WindowAttention(
          dim=32, win_size=(8, 8), num_heads=1
          (qkv): LinearProjection(
            (to_q): Linear(in_features=32, out_features=32, bias=True)
            (to_kv): Linear(in_features=32, out_features=64, bias=True)
          )
          (attn_drop): Dropout(p=0.0, inplace=False)
          (proj): Linear(in_features=32, out_features=32, bias=True)
          (se_layer): Identity()
          (proj_drop): Dropout(p=0.0, inplace=False)
          (softmax): Softmax(dim=-1)
        )
        (drop_path): Identity()
        (norm2): LayerNorm((32,), eps=1e-05, elementwise_affine=True)
        (mlp): LeFF(
          (linear1): Sequential(
            (0): Linear(in_features=32, out_features=128, bias=True)
            (1): GELU()
          )
          (dwconv): Sequential(
            (0): Conv2d(128, 128, kernel_size=(3, 3), stride=(1, 1), padding=(1, 1), groups=128)
            (1): GELU()
          )
          (linear2): Sequential(
            (0): Linear(in_features=128, out_features=32, bias=True)
          )
        )
      )
      (1): LeWinTransformerBlock(
        dim=32, input_resolution=(256, 256), num_heads=1, win_size=8, shift_size=4, mlp_ratio=4.0
        (norm1): LayerNorm((32,), eps=1e-05, elementwise_affine=True)
        (attn): WindowAttention(
          dim=32, win_size=(8, 8), num_heads=1
          (qkv): LinearProjection(
            (to_q): Linear(in_features=32, out_features=32, bias=True)
            (to_kv): Linear(in_features=32, out_features=64, bias=True)
          )
          (attn_drop): Dropout(p=0.0, inplace=False)
          (proj): Linear(in_features=32, out_features=32, bias=True)
          (se_layer): Identity()
          (proj_drop): Dropout(p=0.0, inplace=False)
          (softmax): Softmax(dim=-1)
        )
        (drop_path): DropPath()
        (norm2): LayerNorm((32,), eps=1e-05, elementwise_affine=True)
        (mlp): LeFF(
          (linear1): Sequential(
            (0): Linear(in_features=32, out_features=128, bias=True)
            (1): GELU()
          )
          (dwconv): Sequential(
            (0): Conv2d(128, 128, kernel_size=(3, 3), stride=(1, 1), padding=(1, 1), groups=128)
            (1): GELU()
          )
          (linear2): Sequential(
            (0): Linear(in_features=128, out_features=32, bias=True)
          )
        )
      )
    )
  )
  (dowsample_0): Downsample(
    (conv): Sequential(
      (0): Conv2d(32, 64, kernel_size=(4, 4), stride=(2, 2), padding=(1, 1))
    )
  )
  (encoderlayer_1): BasicUformerLayer(
    dim=64, input_resolution=(128, 128), depth=2
    (blocks): ModuleList(
      (0): LeWinTransformerBlock(
        dim=64, input_resolution=(128, 128), num_heads=2, win_size=8, shift_size=0, mlp_ratio=4.0
        (norm1): LayerNorm((64,), eps=1e-05, elementwise_affine=True)
        (attn): WindowAttention(
          dim=64, win_size=(8, 8), num_heads=2
          (qkv): LinearProjection(
            (to_q): Linear(in_features=64, out_features=64, bias=True)
            (to_kv): Linear(in_features=64, out_features=128, bias=True)
          )
          (attn_drop): Dropout(p=0.0, inplace=False)
          (proj): Linear(in_features=64, out_features=64, bias=True)
          (se_layer): Identity()
          (proj_drop): Dropout(p=0.0, inplace=False)
          (softmax): Softmax(dim=-1)
        )
        (drop_path): DropPath()
        (norm2): LayerNorm((64,), eps=1e-05, elementwise_affine=True)
        (mlp): LeFF(
          (linear1): Sequential(
            (0): Linear(in_features=64, out_features=256, bias=True)
            (1): GELU()
          )
          (dwconv): Sequential(
            (0): Conv2d(256, 256, kernel_size=(3, 3), stride=(1, 1), padding=(1, 1), groups=256)
            (1): GELU()
          )
          (linear2): Sequential(
            (0): Linear(in_features=256, out_features=64, bias=True)
          )
        )
      )
      (1): LeWinTransformerBlock(
        dim=64, input_resolution=(128, 128), num_heads=2, win_size=8, shift_size=4, mlp_ratio=4.0
        (norm1): LayerNorm((64,), eps=1e-05, elementwise_affine=True)
        (attn): WindowAttention(
          dim=64, win_size=(8, 8), num_heads=2
          (qkv): LinearProjection(
            (to_q): Linear(in_features=64, out_features=64, bias=True)
            (to_kv): Linear(in_features=64, out_features=128, bias=True)
          )
          (attn_drop): Dropout(p=0.0, inplace=False)
          (proj): Linear(in_features=64, out_features=64, bias=True)
          (se_layer): Identity()
          (proj_drop): Dropout(p=0.0, inplace=False)
          (softmax): Softmax(dim=-1)
        )
        (drop_path): DropPath()
        (norm2): LayerNorm((64,), eps=1e-05, elementwise_affine=True)
        (mlp): LeFF(
          (linear1): Sequential(
            (0): Linear(in_features=64, out_features=256, bias=True)
            (1): GELU()
          )
          (dwconv): Sequential(
            (0): Conv2d(256, 256, kernel_size=(3, 3), stride=(1, 1), padding=(1, 1), groups=256)
            (1): GELU()
          )
          (linear2): Sequential(
            (0): Linear(in_features=256, out_features=64, bias=True)
          )
        )
      )
    )
  )
  (dowsample_1): Downsample(
    (conv): Sequential(
      (0): Conv2d(64, 128, kernel_size=(4, 4), stride=(2, 2), padding=(1, 1))
    )
  )
  (encoderlayer_2): BasicUformerLayer(
    dim=128, input_resolution=(64, 64), depth=2
    (blocks): ModuleList(
      (0): LeWinTransformerBlock(
        dim=128, input_resolution=(64, 64), num_heads=4, win_size=8, shift_size=0, mlp_ratio=4.0
        (norm1): LayerNorm((128,), eps=1e-05, elementwise_affine=True)
        (attn): WindowAttention(
          dim=128, win_size=(8, 8), num_heads=4
          (qkv): LinearProjection(
            (to_q): Linear(in_features=128, out_features=128, bias=True)
            (to_kv): Linear(in_features=128, out_features=256, bias=True)
          )
          (attn_drop): Dropout(p=0.0, inplace=False)
          (proj): Linear(in_features=128, out_features=128, bias=True)
          (se_layer): Identity()
          (proj_drop): Dropout(p=0.0, inplace=False)
          (softmax): Softmax(dim=-1)
        )
        (drop_path): DropPath()
        (norm2): LayerNorm((128,), eps=1e-05, elementwise_affine=True)
        (mlp): LeFF(
          (linear1): Sequential(
            (0): Linear(in_features=128, out_features=512, bias=True)
            (1): GELU()
          )
          (dwconv): Sequential(
            (0): Conv2d(512, 512, kernel_size=(3, 3), stride=(1, 1), padding=(1, 1), groups=512)
            (1): GELU()
          )
          (linear2): Sequential(
            (0): Linear(in_features=512, out_features=128, bias=True)
          )
        )
      )
      (1): LeWinTransformerBlock(
        dim=128, input_resolution=(64, 64), num_heads=4, win_size=8, shift_size=4, mlp_ratio=4.0
        (norm1): LayerNorm((128,), eps=1e-05, elementwise_affine=True)
        (attn): WindowAttention(
          dim=128, win_size=(8, 8), num_heads=4
          (qkv): LinearProjection(
            (to_q): Linear(in_features=128, out_features=128, bias=True)
            (to_kv): Linear(in_features=128, out_features=256, bias=True)
          )
          (attn_drop): Dropout(p=0.0, inplace=False)
          (proj): Linear(in_features=128, out_features=128, bias=True)
          (se_layer): Identity()
          (proj_drop): Dropout(p=0.0, inplace=False)
          (softmax): Softmax(dim=-1)
        )
        (drop_path): DropPath()
        (norm2): LayerNorm((128,), eps=1e-05, elementwise_affine=True)
        (mlp): LeFF(
          (linear1): Sequential(
            (0): Linear(in_features=128, out_features=512, bias=True)
            (1): GELU()
          )
          (dwconv): Sequential(
            (0): Conv2d(512, 512, kernel_size=(3, 3), stride=(1, 1), padding=(1, 1), groups=512)
            (1): GELU()
          )
          (linear2): Sequential(
            (0): Linear(in_features=512, out_features=128, bias=True)
          )
        )
      )
    )
  )
  (dowsample_2): Downsample(
    (conv): Sequential(
      (0): Conv2d(128, 256, kernel_size=(4, 4), stride=(2, 2), padding=(1, 1))
    )
  )
  (encoderlayer_3): BasicUformerLayer(
    dim=256, input_resolution=(32, 32), depth=2
    (blocks): ModuleList(
      (0): LeWinTransformerBlock(
        dim=256, input_resolution=(32, 32), num_heads=8, win_size=8, shift_size=0, mlp_ratio=4.0
        (norm1): LayerNorm((256,), eps=1e-05, elementwise_affine=True)
        (attn): WindowAttention(
          dim=256, win_size=(8, 8), num_heads=8
          (qkv): LinearProjection(
            (to_q): Linear(in_features=256, out_features=256, bias=True)
            (to_kv): Linear(in_features=256, out_features=512, bias=True)
          )
          (attn_drop): Dropout(p=0.0, inplace=False)
          (proj): Linear(in_features=256, out_features=256, bias=True)
          (se_layer): Identity()
          (proj_drop): Dropout(p=0.0, inplace=False)
          (softmax): Softmax(dim=-1)
        )
        (drop_path): DropPath()
        (norm2): LayerNorm((256,), eps=1e-05, elementwise_affine=True)
        (mlp): LeFF(
          (linear1): Sequential(
            (0): Linear(in_features=256, out_features=1024, bias=True)
            (1): GELU()
          )
          (dwconv): Sequential(
            (0): Conv2d(1024, 1024, kernel_size=(3, 3), stride=(1, 1), padding=(1, 1), groups=1024)
            (1): GELU()
          )
          (linear2): Sequential(
            (0): Linear(in_features=1024, out_features=256, bias=True)
          )
        )
      )
      (1): LeWinTransformerBlock(
        dim=256, input_resolution=(32, 32), num_heads=8, win_size=8, shift_size=4, mlp_ratio=4.0
        (norm1): LayerNorm((256,), eps=1e-05, elementwise_affine=True)
        (attn): WindowAttention(
          dim=256, win_size=(8, 8), num_heads=8
          (qkv): LinearProjection(
            (to_q): Linear(in_features=256, out_features=256, bias=True)
            (to_kv): Linear(in_features=256, out_features=512, bias=True)
          )
          (attn_drop): Dropout(p=0.0, inplace=False)
          (proj): Linear(in_features=256, out_features=256, bias=True)
          (se_layer): Identity()
          (proj_drop): Dropout(p=0.0, inplace=False)
          (softmax): Softmax(dim=-1)
        )
        (drop_path): DropPath()
        (norm2): LayerNorm((256,), eps=1e-05, elementwise_affine=True)
        (mlp): LeFF(
          (linear1): Sequential(
            (0): Linear(in_features=256, out_features=1024, bias=True)
            (1): GELU()
          )
          (dwconv): Sequential(
            (0): Conv2d(1024, 1024, kernel_size=(3, 3), stride=(1, 1), padding=(1, 1), groups=1024)
            (1): GELU()
          )
          (linear2): Sequential(
            (0): Linear(in_features=1024, out_features=256, bias=True)
          )
        )
      )
    )
  )
  (dowsample_3): Downsample(
    (conv): Sequential(
      (0): Conv2d(256, 512, kernel_size=(4, 4), stride=(2, 2), padding=(1, 1))
    )
  )
  (Bottleneck_0): BasicUformerLayer(
    dim=512, input_resolution=(16, 16), depth=2
    (blocks): ModuleList(
      (0): LeWinTransformerBlock(
        dim=512, input_resolution=(16, 16), num_heads=16, win_size=8, shift_size=0, mlp_ratio=4.0
        (norm1): LayerNorm((512,), eps=1e-05, elementwise_affine=True)
        (attn): WindowAttention(
          dim=512, win_size=(8, 8), num_heads=16
          (qkv): LinearProjection(
            (to_q): Linear(in_features=512, out_features=512, bias=True)
            (to_kv): Linear(in_features=512, out_features=1024, bias=True)
          )
          (attn_drop): Dropout(p=0.0, inplace=False)
          (proj): Linear(in_features=512, out_features=512, bias=True)
          (se_layer): Identity()
          (proj_drop): Dropout(p=0.0, inplace=False)
          (softmax): Softmax(dim=-1)
        )
        (drop_path): DropPath()
        (norm2): LayerNorm((512,), eps=1e-05, elementwise_affine=True)
        (mlp): LeFF(
          (linear1): Sequential(
            (0): Linear(in_features=512, out_features=2048, bias=True)
            (1): GELU()
          )
          (dwconv): Sequential(
            (0): Conv2d(2048, 2048, kernel_size=(3, 3), stride=(1, 1), padding=(1, 1), groups=2048)
            (1): GELU()
          )
          (linear2): Sequential(
            (0): Linear(in_features=2048, out_features=512, bias=True)
          )
        )
      )
      (1): LeWinTransformerBlock(
        dim=512, input_resolution=(16, 16), num_heads=16, win_size=8, shift_size=4, mlp_ratio=4.0
        (norm1): LayerNorm((512,), eps=1e-05, elementwise_affine=True)
        (attn): WindowAttention(
          dim=512, win_size=(8, 8), num_heads=16
          (qkv): LinearProjection(
            (to_q): Linear(in_features=512, out_features=512, bias=True)
            (to_kv): Linear(in_features=512, out_features=1024, bias=True)
          )
          (attn_drop): Dropout(p=0.0, inplace=False)
          (proj): Linear(in_features=512, out_features=512, bias=True)
          (se_layer): Identity()
          (proj_drop): Dropout(p=0.0, inplace=False)
          (softmax): Softmax(dim=-1)
        )
        (drop_path): DropPath()
        (norm2): LayerNorm((512,), eps=1e-05, elementwise_affine=True)
        (mlp): LeFF(
          (linear1): Sequential(
            (0): Linear(in_features=512, out_features=2048, bias=True)
            (1): GELU()
          )
          (dwconv): Sequential(
            (0): Conv2d(2048, 2048, kernel_size=(3, 3), stride=(1, 1), padding=(1, 1), groups=2048)
            (1): GELU()
          )
          (linear2): Sequential(
            (0): Linear(in_features=2048, out_features=512, bias=True)
          )
        )
      )
    )
  )
  (Bottleneck0_conv): WConvBlock(
    (block): Sequential(
      (0): Conv2d(512, 512, kernel_size=(3, 3), stride=(1, 1), padding=(1, 1))
      (1): LeakyReLU(negative_slope=0.01, inplace=True)
      (2): Conv2d(512, 512, kernel_size=(3, 3), stride=(1, 1), padding=(1, 1))
      (3): LeakyReLU(negative_slope=0.01, inplace=True)
    )
    (conv11): Conv2d(512, 512, kernel_size=(1, 1), stride=(1, 1))
  )
  (Wup_0): NearestUpsample(
    (deconv): Sequential(
      (0): Conv2d(512, 256, kernel_size=(3, 3), stride=(1, 1), padding=(1, 1))
      (1): LeakyReLU(negative_slope=0.01, inplace=True)
    )
  )
  (Wconv_d0): WConvBlock(
    (block): Sequential(
      (0): Conv2d(256, 256, kernel_size=(3, 3), stride=(1, 1), padding=(1, 1))
      (1): LeakyReLU(negative_slope=0.01, inplace=True)
      (2): Conv2d(256, 256, kernel_size=(3, 3), stride=(1, 1), padding=(1, 1))
      (3): LeakyReLU(negative_slope=0.01, inplace=True)
    )
    (conv11): Conv2d(256, 256, kernel_size=(1, 1), stride=(1, 1))
  )
  (Wup_1): NearestUpsample(
    (deconv): Sequential(
      (0): Conv2d(256, 128, kernel_size=(3, 3), stride=(1, 1), padding=(1, 1))
      (1): LeakyReLU(negative_slope=0.01, inplace=True)
    )
  )
  (Wconv_d1): WConvBlock(
    (block): Sequential(
      (0): Conv2d(128, 128, kernel_size=(3, 3), stride=(1, 1), padding=(1, 1))
      (1): LeakyReLU(negative_slope=0.01, inplace=True)
      (2): Conv2d(128, 128, kernel_size=(3, 3), stride=(1, 1), padding=(1, 1))
      (3): LeakyReLU(negative_slope=0.01, inplace=True)
    )
    (conv11): Conv2d(128, 128, kernel_size=(1, 1), stride=(1, 1))
  )
  (Wup_2): NearestUpsample(
    (deconv): Sequential(
      (0): Conv2d(128, 64, kernel_size=(3, 3), stride=(1, 1), padding=(1, 1))
      (1): LeakyReLU(negative_slope=0.01, inplace=True)
    )
  )
  (Wconv_d2): WConvBlock(
    (block): Sequential(
      (0): Conv2d(64, 64, kernel_size=(3, 3), stride=(1, 1), padding=(1, 1))
      (1): LeakyReLU(negative_slope=0.01, inplace=True)
      (2): Conv2d(64, 64, kernel_size=(3, 3), stride=(1, 1), padding=(1, 1))
      (3): LeakyReLU(negative_slope=0.01, inplace=True)
    )
    (conv11): Conv2d(64, 64, kernel_size=(1, 1), stride=(1, 1))
  )
  (Wup_3): NearestUpsample(
    (deconv): Sequential(
      (0): Conv2d(64, 32, kernel_size=(3, 3), stride=(1, 1), padding=(1, 1))
      (1): LeakyReLU(negative_slope=0.01, inplace=True)
    )
  )
  (Wconv_d3): WConvBlock(
    (block): Sequential(
      (0): Conv2d(32, 32, kernel_size=(3, 3), stride=(1, 1), padding=(1, 1))
      (1): LeakyReLU(negative_slope=0.01, inplace=True)
      (2): Conv2d(32, 32, kernel_size=(3, 3), stride=(1, 1), padding=(1, 1))
      (3): LeakyReLU(negative_slope=0.01, inplace=True)
    )
    (conv11): Conv2d(32, 32, kernel_size=(1, 1), stride=(1, 1))
  )
  (Wout): OutputProj(
    (proj): Sequential(
      (0): Conv2d(32, 3, kernel_size=(3, 3), stride=(1, 1), padding=(1, 1))
    )
  )
  (Win): InputProj(
    (proj): Sequential(
      (0): Conv2d(3, 32, kernel_size=(3, 3), stride=(1, 1), padding=(1, 1))
      (1): LeakyReLU(negative_slope=0.01, inplace=True)
    )
  )
  (Wconv_e0): WConvBlock(
    (block): Sequential(
      (0): Conv2d(64, 32, kernel_size=(3, 3), stride=(1, 1), padding=(1, 1))
      (1): LeakyReLU(negative_slope=0.01, inplace=True)
      (2): Conv2d(32, 32, kernel_size=(3, 3), stride=(1, 1), padding=(1, 1))
      (3): LeakyReLU(negative_slope=0.01, inplace=True)
    )
    (conv11): Conv2d(64, 32, kernel_size=(1, 1), stride=(1, 1))
  )
  (Wdown_0): Downsample(
    (conv): Sequential(
      (0): Conv2d(32, 64, kernel_size=(4, 4), stride=(2, 2), padding=(1, 1))
    )
  )
  (Wconv_e1): WConvBlock(
    (block): Sequential(
      (0): Conv2d(128, 64, kernel_size=(3, 3), stride=(1, 1), padding=(1, 1))
      (1): LeakyReLU(negative_slope=0.01, inplace=True)
      (2): Conv2d(64, 64, kernel_size=(3, 3), stride=(1, 1), padding=(1, 1))
      (3): LeakyReLU(negative_slope=0.01, inplace=True)
    )
    (conv11): Conv2d(128, 64, kernel_size=(1, 1), stride=(1, 1))
  )
  (Wdown_1): Downsample(
    (conv): Sequential(
      (0): Conv2d(64, 128, kernel_size=(4, 4), stride=(2, 2), padding=(1, 1))
    )
  )
  (Wconv_e2): WConvBlock(
    (block): Sequential(
      (0): Conv2d(256, 128, kernel_size=(3, 3), stride=(1, 1), padding=(1, 1))
      (1): LeakyReLU(negative_slope=0.01, inplace=True)
      (2): Conv2d(128, 128, kernel_size=(3, 3), stride=(1, 1), padding=(1, 1))
      (3): LeakyReLU(negative_slope=0.01, inplace=True)
    )
    (conv11): Conv2d(256, 128, kernel_size=(1, 1), stride=(1, 1))
  )
  (Wdown_2): Downsample(
    (conv): Sequential(
      (0): Conv2d(128, 256, kernel_size=(4, 4), stride=(2, 2), padding=(1, 1))
    )
  )
  (Wconv_e3): WConvBlock(
    (block): Sequential(
      (0): Conv2d(512, 256, kernel_size=(3, 3), stride=(1, 1), padding=(1, 1))
      (1): LeakyReLU(negative_slope=0.01, inplace=True)
      (2): Conv2d(256, 256, kernel_size=(3, 3), stride=(1, 1), padding=(1, 1))
      (3): LeakyReLU(negative_slope=0.01, inplace=True)
    )
    (conv11): Conv2d(512, 256, kernel_size=(1, 1), stride=(1, 1))
  )
  (Wdown_3): Downsample(
    (conv): Sequential(
      (0): Conv2d(256, 512, kernel_size=(4, 4), stride=(2, 2), padding=(1, 1))
    )
  )
  (Bottleneck_1): BasicUformerLayer(
    dim=512, input_resolution=(16, 16), depth=2
    (blocks): ModuleList(
      (0): LeWinTransformerBlock(
        dim=512, input_resolution=(16, 16), num_heads=16, win_size=8, shift_size=0, mlp_ratio=4.0
        (norm1): LayerNorm((512,), eps=1e-05, elementwise_affine=True)
        (attn): WindowAttention(
          dim=512, win_size=(8, 8), num_heads=16
          (qkv): LinearProjection(
            (to_q): Linear(in_features=512, out_features=512, bias=True)
            (to_kv): Linear(in_features=512, out_features=1024, bias=True)
          )
          (attn_drop): Dropout(p=0.0, inplace=False)
          (proj): Linear(in_features=512, out_features=512, bias=True)
          (se_layer): Identity()
          (proj_drop): Dropout(p=0.0, inplace=False)
          (softmax): Softmax(dim=-1)
        )
        (drop_path): DropPath()
        (norm2): LayerNorm((512,), eps=1e-05, elementwise_affine=True)
        (mlp): LeFF(
          (linear1): Sequential(
            (0): Linear(in_features=512, out_features=2048, bias=True)
            (1): GELU()
          )
          (dwconv): Sequential(
            (0): Conv2d(2048, 2048, kernel_size=(3, 3), stride=(1, 1), padding=(1, 1), groups=2048)
            (1): GELU()
          )
          (linear2): Sequential(
            (0): Linear(in_features=2048, out_features=512, bias=True)
          )
        )
      )
      (1): LeWinTransformerBlock(
        dim=512, input_resolution=(16, 16), num_heads=16, win_size=8, shift_size=4, mlp_ratio=4.0
        (norm1): LayerNorm((512,), eps=1e-05, elementwise_affine=True)
        (attn): WindowAttention(
          dim=512, win_size=(8, 8), num_heads=16
          (qkv): LinearProjection(
            (to_q): Linear(in_features=512, out_features=512, bias=True)
            (to_kv): Linear(in_features=512, out_features=1024, bias=True)
          )
          (attn_drop): Dropout(p=0.0, inplace=False)
          (proj): Linear(in_features=512, out_features=512, bias=True)
          (se_layer): Identity()
          (proj_drop): Dropout(p=0.0, inplace=False)
          (softmax): Softmax(dim=-1)
        )
        (drop_path): DropPath()
        (norm2): LayerNorm((512,), eps=1e-05, elementwise_affine=True)
        (mlp): LeFF(
          (linear1): Sequential(
            (0): Linear(in_features=512, out_features=2048, bias=True)
            (1): GELU()
          )
          (dwconv): Sequential(
            (0): Conv2d(2048, 2048, kernel_size=(3, 3), stride=(1, 1), padding=(1, 1), groups=2048)
            (1): GELU()
          )
          (linear2): Sequential(
            (0): Linear(in_features=2048, out_features=512, bias=True)
          )
        )
      )
    )
  )
  (Bottleneck1_conv): WConvBlock(
    (block): Sequential(
      (0): Conv2d(512, 512, kernel_size=(3, 3), stride=(1, 1), padding=(1, 1))
      (1): LeakyReLU(negative_slope=0.01, inplace=True)
      (2): Conv2d(512, 512, kernel_size=(3, 3), stride=(1, 1), padding=(1, 1))
      (3): LeakyReLU(negative_slope=0.01, inplace=True)
    )
    (conv11): Conv2d(512, 512, kernel_size=(1, 1), stride=(1, 1))
  )
  (merge_conv_0): WConvBlock(
    (block): Sequential(
      (0): Conv2d(1024, 512, kernel_size=(3, 3), stride=(1, 1), padding=(1, 1))
      (1): LeakyReLU(negative_slope=0.01, inplace=True)
      (2): Conv2d(512, 512, kernel_size=(3, 3), stride=(1, 1), padding=(1, 1))
      (3): LeakyReLU(negative_slope=0.01, inplace=True)
    )
    (conv11): Conv2d(1024, 512, kernel_size=(1, 1), stride=(1, 1))
  )
  (upsample_0): NearestUpsample(
    (deconv): Sequential(
      (0): Conv2d(512, 256, kernel_size=(3, 3), stride=(1, 1), padding=(1, 1))
      (1): LeakyReLU(negative_slope=0.01, inplace=True)
    )
  )
  (decoderlayer_0): BasicUformerLayer(
    dim=512, input_resolution=(32, 32), depth=2
    (blocks): ModuleList(
      (0): LeWinTransformerBlock(
        dim=512, input_resolution=(32, 32), num_heads=16, win_size=8, shift_size=0, mlp_ratio=4.0
        (norm1): LayerNorm((512,), eps=1e-05, elementwise_affine=True)
        (attn): WindowAttention(
          dim=512, win_size=(8, 8), num_heads=16
          (qkv): LinearProjection(
            (to_q): Linear(in_features=512, out_features=512, bias=True)
            (to_kv): Linear(in_features=512, out_features=1024, bias=True)
          )
          (attn_drop): Dropout(p=0.0, inplace=False)
          (proj): Linear(in_features=512, out_features=512, bias=True)
          (se_layer): Identity()
          (proj_drop): Dropout(p=0.0, inplace=False)
          (softmax): Softmax(dim=-1)
        )
        (drop_path): DropPath()
        (norm2): LayerNorm((512,), eps=1e-05, elementwise_affine=True)
        (mlp): LeFF(
          (linear1): Sequential(
            (0): Linear(in_features=512, out_features=2048, bias=True)
            (1): GELU()
          )
          (dwconv): Sequential(
            (0): Conv2d(2048, 2048, kernel_size=(3, 3), stride=(1, 1), padding=(1, 1), groups=2048)
            (1): GELU()
          )
          (linear2): Sequential(
            (0): Linear(in_features=2048, out_features=512, bias=True)
          )
        )
      )
      (1): LeWinTransformerBlock(
        dim=512, input_resolution=(32, 32), num_heads=16, win_size=8, shift_size=4, mlp_ratio=4.0
        (norm1): LayerNorm((512,), eps=1e-05, elementwise_affine=True)
        (attn): WindowAttention(
          dim=512, win_size=(8, 8), num_heads=16
          (qkv): LinearProjection(
            (to_q): Linear(in_features=512, out_features=512, bias=True)
            (to_kv): Linear(in_features=512, out_features=1024, bias=True)
          )
          (attn_drop): Dropout(p=0.0, inplace=False)
          (proj): Linear(in_features=512, out_features=512, bias=True)
          (se_layer): Identity()
          (proj_drop): Dropout(p=0.0, inplace=False)
          (softmax): Softmax(dim=-1)
        )
        (drop_path): DropPath()
        (norm2): LayerNorm((512,), eps=1e-05, elementwise_affine=True)
        (mlp): LeFF(
          (linear1): Sequential(
            (0): Linear(in_features=512, out_features=2048, bias=True)
            (1): GELU()
          )
          (dwconv): Sequential(
            (0): Conv2d(2048, 2048, kernel_size=(3, 3), stride=(1, 1), padding=(1, 1), groups=2048)
            (1): GELU()
          )
          (linear2): Sequential(
            (0): Linear(in_features=2048, out_features=512, bias=True)
          )
        )
      )
    )
  )
  (merge_conv_1): WConvBlock(
    (block): Sequential(
      (0): Conv2d(512, 256, kernel_size=(3, 3), stride=(1, 1), padding=(1, 1))
      (1): LeakyReLU(negative_slope=0.01, inplace=True)
      (2): Conv2d(256, 256, kernel_size=(3, 3), stride=(1, 1), padding=(1, 1))
      (3): LeakyReLU(negative_slope=0.01, inplace=True)
    )
    (conv11): Conv2d(512, 256, kernel_size=(1, 1), stride=(1, 1))
  )
  (upsample_1): NearestUpsample(
    (deconv): Sequential(
      (0): Conv2d(256, 128, kernel_size=(3, 3), stride=(1, 1), padding=(1, 1))
      (1): LeakyReLU(negative_slope=0.01, inplace=True)
    )
  )
  (decoderlayer_1): BasicUformerLayer(
    dim=256, input_resolution=(64, 64), depth=2
    (blocks): ModuleList(
      (0): LeWinTransformerBlock(
        dim=256, input_resolution=(64, 64), num_heads=8, win_size=8, shift_size=0, mlp_ratio=4.0
        (norm1): LayerNorm((256,), eps=1e-05, elementwise_affine=True)
        (attn): WindowAttention(
          dim=256, win_size=(8, 8), num_heads=8
          (qkv): LinearProjection(
            (to_q): Linear(in_features=256, out_features=256, bias=True)
            (to_kv): Linear(in_features=256, out_features=512, bias=True)
          )
          (attn_drop): Dropout(p=0.0, inplace=False)
          (proj): Linear(in_features=256, out_features=256, bias=True)
          (se_layer): Identity()
          (proj_drop): Dropout(p=0.0, inplace=False)
          (softmax): Softmax(dim=-1)
        )
        (drop_path): DropPath()
        (norm2): LayerNorm((256,), eps=1e-05, elementwise_affine=True)
        (mlp): LeFF(
          (linear1): Sequential(
            (0): Linear(in_features=256, out_features=1024, bias=True)
            (1): GELU()
          )
          (dwconv): Sequential(
            (0): Conv2d(1024, 1024, kernel_size=(3, 3), stride=(1, 1), padding=(1, 1), groups=1024)
            (1): GELU()
          )
          (linear2): Sequential(
            (0): Linear(in_features=1024, out_features=256, bias=True)
          )
        )
      )
      (1): LeWinTransformerBlock(
        dim=256, input_resolution=(64, 64), num_heads=8, win_size=8, shift_size=4, mlp_ratio=4.0
        (norm1): LayerNorm((256,), eps=1e-05, elementwise_affine=True)
        (attn): WindowAttention(
          dim=256, win_size=(8, 8), num_heads=8
          (qkv): LinearProjection(
            (to_q): Linear(in_features=256, out_features=256, bias=True)
            (to_kv): Linear(in_features=256, out_features=512, bias=True)
          )
          (attn_drop): Dropout(p=0.0, inplace=False)
          (proj): Linear(in_features=256, out_features=256, bias=True)
          (se_layer): Identity()
          (proj_drop): Dropout(p=0.0, inplace=False)
          (softmax): Softmax(dim=-1)
        )
        (drop_path): DropPath()
        (norm2): LayerNorm((256,), eps=1e-05, elementwise_affine=True)
        (mlp): LeFF(
          (linear1): Sequential(
            (0): Linear(in_features=256, out_features=1024, bias=True)
            (1): GELU()
          )
          (dwconv): Sequential(
            (0): Conv2d(1024, 1024, kernel_size=(3, 3), stride=(1, 1), padding=(1, 1), groups=1024)
            (1): GELU()
          )
          (linear2): Sequential(
            (0): Linear(in_features=1024, out_features=256, bias=True)
          )
        )
      )
    )
  )
  (merge_conv_2): WConvBlock(
    (block): Sequential(
      (0): Conv2d(256, 128, kernel_size=(3, 3), stride=(1, 1), padding=(1, 1))
      (1): LeakyReLU(negative_slope=0.01, inplace=True)
      (2): Conv2d(128, 128, kernel_size=(3, 3), stride=(1, 1), padding=(1, 1))
      (3): LeakyReLU(negative_slope=0.01, inplace=True)
    )
    (conv11): Conv2d(256, 128, kernel_size=(1, 1), stride=(1, 1))
  )
  (upsample_2): NearestUpsample(
    (deconv): Sequential(
      (0): Conv2d(128, 64, kernel_size=(3, 3), stride=(1, 1), padding=(1, 1))
      (1): LeakyReLU(negative_slope=0.01, inplace=True)
    )
  )
  (decoderlayer_2): BasicUformerLayer(
    dim=128, input_resolution=(128, 128), depth=2
    (blocks): ModuleList(
      (0): LeWinTransformerBlock(
        dim=128, input_resolution=(128, 128), num_heads=4, win_size=8, shift_size=0, mlp_ratio=4.0
        (norm1): LayerNorm((128,), eps=1e-05, elementwise_affine=True)
        (attn): WindowAttention(
          dim=128, win_size=(8, 8), num_heads=4
          (qkv): LinearProjection(
            (to_q): Linear(in_features=128, out_features=128, bias=True)
            (to_kv): Linear(in_features=128, out_features=256, bias=True)
          )
          (attn_drop): Dropout(p=0.0, inplace=False)
          (proj): Linear(in_features=128, out_features=128, bias=True)
          (se_layer): Identity()
          (proj_drop): Dropout(p=0.0, inplace=False)
          (softmax): Softmax(dim=-1)
        )
        (drop_path): DropPath()
        (norm2): LayerNorm((128,), eps=1e-05, elementwise_affine=True)
        (mlp): LeFF(
          (linear1): Sequential(
            (0): Linear(in_features=128, out_features=512, bias=True)
            (1): GELU()
          )
          (dwconv): Sequential(
            (0): Conv2d(512, 512, kernel_size=(3, 3), stride=(1, 1), padding=(1, 1), groups=512)
            (1): GELU()
          )
          (linear2): Sequential(
            (0): Linear(in_features=512, out_features=128, bias=True)
          )
        )
      )
      (1): LeWinTransformerBlock(
        dim=128, input_resolution=(128, 128), num_heads=4, win_size=8, shift_size=4, mlp_ratio=4.0
        (norm1): LayerNorm((128,), eps=1e-05, elementwise_affine=True)
        (attn): WindowAttention(
          dim=128, win_size=(8, 8), num_heads=4
          (qkv): LinearProjection(
            (to_q): Linear(in_features=128, out_features=128, bias=True)
            (to_kv): Linear(in_features=128, out_features=256, bias=True)
          )
          (attn_drop): Dropout(p=0.0, inplace=False)
          (proj): Linear(in_features=128, out_features=128, bias=True)
          (se_layer): Identity()
          (proj_drop): Dropout(p=0.0, inplace=False)
          (softmax): Softmax(dim=-1)
        )
        (drop_path): DropPath()
        (norm2): LayerNorm((128,), eps=1e-05, elementwise_affine=True)
        (mlp): LeFF(
          (linear1): Sequential(
            (0): Linear(in_features=128, out_features=512, bias=True)
            (1): GELU()
          )
          (dwconv): Sequential(
            (0): Conv2d(512, 512, kernel_size=(3, 3), stride=(1, 1), padding=(1, 1), groups=512)
            (1): GELU()
          )
          (linear2): Sequential(
            (0): Linear(in_features=512, out_features=128, bias=True)
          )
        )
      )
    )
  )
  (merge_conv_3): WConvBlock(
    (block): Sequential(
      (0): Conv2d(128, 64, kernel_size=(3, 3), stride=(1, 1), padding=(1, 1))
      (1): LeakyReLU(negative_slope=0.01, inplace=True)
      (2): Conv2d(64, 64, kernel_size=(3, 3), stride=(1, 1), padding=(1, 1))
      (3): LeakyReLU(negative_slope=0.01, inplace=True)
    )
    (conv11): Conv2d(128, 64, kernel_size=(1, 1), stride=(1, 1))
  )
  (upsample_3): NearestUpsample(
    (deconv): Sequential(
      (0): Conv2d(64, 32, kernel_size=(3, 3), stride=(1, 1), padding=(1, 1))
      (1): LeakyReLU(negative_slope=0.01, inplace=True)
    )
  )
  (decoderlayer_3): BasicUformerLayer(
    dim=64, input_resolution=(256, 256), depth=2
    (blocks): ModuleList(
      (0): LeWinTransformerBlock(
        dim=64, input_resolution=(256, 256), num_heads=2, win_size=8, shift_size=0, mlp_ratio=4.0
        (norm1): LayerNorm((64,), eps=1e-05, elementwise_affine=True)
        (attn): WindowAttention(
          dim=64, win_size=(8, 8), num_heads=2
          (qkv): LinearProjection(
            (to_q): Linear(in_features=64, out_features=64, bias=True)
            (to_kv): Linear(in_features=64, out_features=128, bias=True)
          )
          (attn_drop): Dropout(p=0.0, inplace=False)
          (proj): Linear(in_features=64, out_features=64, bias=True)
          (se_layer): Identity()
          (proj_drop): Dropout(p=0.0, inplace=False)
          (softmax): Softmax(dim=-1)
        )
        (drop_path): DropPath()
        (norm2): LayerNorm((64,), eps=1e-05, elementwise_affine=True)
        (mlp): LeFF(
          (linear1): Sequential(
            (0): Linear(in_features=64, out_features=256, bias=True)
            (1): GELU()
          )
          (dwconv): Sequential(
            (0): Conv2d(256, 256, kernel_size=(3, 3), stride=(1, 1), padding=(1, 1), groups=256)
            (1): GELU()
          )
          (linear2): Sequential(
            (0): Linear(in_features=256, out_features=64, bias=True)
          )
        )
      )
      (1): LeWinTransformerBlock(
        dim=64, input_resolution=(256, 256), num_heads=2, win_size=8, shift_size=4, mlp_ratio=4.0
        (norm1): LayerNorm((64,), eps=1e-05, elementwise_affine=True)
        (attn): WindowAttention(
          dim=64, win_size=(8, 8), num_heads=2
          (qkv): LinearProjection(
            (to_q): Linear(in_features=64, out_features=64, bias=True)
            (to_kv): Linear(in_features=64, out_features=128, bias=True)
          )
          (attn_drop): Dropout(p=0.0, inplace=False)
          (proj): Linear(in_features=64, out_features=64, bias=True)
          (se_layer): Identity()
          (proj_drop): Dropout(p=0.0, inplace=False)
          (softmax): Softmax(dim=-1)
        )
        (drop_path): Identity()
        (norm2): LayerNorm((64,), eps=1e-05, elementwise_affine=True)
        (mlp): LeFF(
          (linear1): Sequential(
            (0): Linear(in_features=64, out_features=256, bias=True)
            (1): GELU()
          )
          (dwconv): Sequential(
            (0): Conv2d(256, 256, kernel_size=(3, 3), stride=(1, 1), padding=(1, 1), groups=256)
            (1): GELU()
          )
          (linear2): Sequential(
            (0): Linear(in_features=256, out_features=64, bias=True)
          )
        )
      )
    )
  )
  (merge_conv_out): WConvBlock(
    (block): Sequential(
      (0): Conv2d(64, 32, kernel_size=(3, 3), stride=(1, 1), padding=(1, 1))
      (1): LeakyReLU(negative_slope=0.01, inplace=True)
      (2): Conv2d(32, 32, kernel_size=(3, 3), stride=(1, 1), padding=(1, 1))
      (3): LeakyReLU(negative_slope=0.01, inplace=True)
    )
    (conv11): Conv2d(64, 32, kernel_size=(1, 1), stride=(1, 1))
  )
)
[Ep 1 it 129	 PSNR SIDD: 22.1036	] ----  [best_Ep_SIDD 1 best_it_SIDD 129 Best_PSNR_SIDD 22.1036] 
Epoch: 1	Time: 227.4970	Loss: 31.6070	LearningRate 0.000067
[Ep 2 it 129	 PSNR SIDD: 21.8042	] ----  [best_Ep_SIDD 1 best_it_SIDD 129 Best_PSNR_SIDD 22.1036] 
Epoch: 2	Time: 188.9390	Loss: 30.2692	LearningRate 0.000100
[Ep 3 it 129	 PSNR SIDD: 20.3136	] ----  [best_Ep_SIDD 1 best_it_SIDD 129 Best_PSNR_SIDD 22.1036] 
…
